…
Axes>"],"image/png":"…\n"},"metadata":{}}]},{"cell_type":"code","source":["# ## Evaluation (Greedy Policy)\n","# model.load_state_dict(torch.load(SAVE_PATH))\n","# model.eval()"],"metadata":{"colab":{"base_uri":"https://localhost:8080/"},"id":"55A154w7VQEC","executionInfo":{"status":"ok","timestamp":1745289024849,"user_tz":240,"elapsed":47,"user":{"displayName":"Lalasa M","userId":"00826899500889371570"}},"outputId":"e9024505-5e02-44de-be6c-b93ef3354061"},"execution_count":null,"outputs":[{"output_type":"execute_result","data":{"text/plain":["ActorCritic(\n","  (shared): Sequential(\n","    (0): Linear(in_features=17, out_features=256, bias=True)\n","    (1): ReLU()\n","  )\n","  (actor_mean): Sequential(\n","    (0): Linear(in_features=256, out_features=256, bias=True)\n","    (1): ReLU()\n","    (2): Linear(in_features=256, out_features=6, bias=True)\n","  )\n","  (critic): Sequential(\n","    (0): Linear(in_features=256, out_features=256, bias=True)\n","    (1): ReLU()\n","    (2): Linear(in_features=256, out_features=1, bias=True)\n","  )\n",")"]},"metadata":{},"execution_count":19}]},{"cell_type":"code","source":["## Evaluation (Greedy Policy)\n","model.load_state_dict(torch.load(SAVE_PATH))\n","model.eval()"],"metadata":{"colab":{"base_uri":"https://localhost:8080/"},"id":"JMmd8vyRtggP","executionInfo":{"status":"ok","timestamp":1745362489493,"user_tz":240,"elapsed":33,"user":{"displayName":"Lalasa","userId":"17094260468629797285"}},"outputId":"e4c01361-4e06-465f-c11e-3b9b272bbd2f"},"execution_count":null,"outputs":[{"output_type":"execute_result","data":{"text/plain":["ActorCritic(\n","  (shared): Sequential(\n","    (0): Linear(in_features=17, out_features=256, bias=True)\n","    (1): ReLU()\n","    (2): Linear(in_features=256, out_features=256, bias=True)\n","    (3): ReLU()\n","    (4): Linear(in_features=256, out_features=256, bias=True)\n","    (5): ReLU()\n","  )\n","  (actor_mean): Linear(in_features=256, out_features=6, bias=True)\n","  (critic): Linear(in_features=256, out_features=1, bias=True)\n",")"]},"metadata":{},"execution_count":15}]},{"cell_type":"code","source":["eval_rewards = []\n","NUM_EVAL_EPISODES = 10\n","\n","for _ in range(NUM_EVAL_EPISODES):\n","    state, _ = env.reset()\n","    done = False\n","    total_reward = 0\n","\n","    while not done:\n","        state_tensor = torch.FloatTensor(state).to(device)\n","        with tor
…
